s03/python_scripts/python_scripts/deblurring_family_experimental.pt (torch, 163231 bytes, 7 tensors)

weight f4 [32, 1, 3, 3]
000000 4e 13 77 3e 0b 72 92 bd d0 a9 11 be 13 4d 2d be
       0.24128458 -0.07150658 -0.14224935 -0.16923933
000010 58 b9 63 3e 42 eb 8a be 3b 21 23 be c3 9f 17 3e
       0.22238672 -0.27132612 -0.15930645 0.14807038
000020 5a fb a6 be 31 48 e7 3e ec 98 03 3e be 0b 2d 3d
       -0.3261364 0.45172265 0.12851304 0.042247526
000030 9a 84 83 be 2e 3d 85 be e4 b6 7d 3e 38 16 2d be
       -0.25687104 -0.2602324 0.24776798 -0.16903007
000040 18 ae 27 be 6a ad 9a 3e 5b 67 4a 3e 2d 5e b2 be
       -0.16375005 0.3021043 0.1976599 -0.34837475
000050 c6 b3 b9 bd 0b 3c 5a 3e 07 a3 3d 3e 65 ec 65 3e
       -0.09067492 0.21311967 0.18519221 0.22453459
000060 e7 ec 1e 3d da 13 dc 3d 41 2a 33 be d0 d4 1d be
       0.038800146 0.10745974 -0.17496587 -0.15413213
000070 77 63 7e 3e 6d 98 10 be b9 a9 ae be 3d 5b f2 3e
       0.2484263 -0.14120646 -0.34113863 0.47335234
000080 f2 be 9f 3e 68 fc 9b be 19 09 e3 3b 5f a4 97 3d
       0.31200367 -0.30466008 0.0069285748 0.07404398
000090 7b 26 04 be 67 7a 96 be 33 18 6b 3e e3 2a 65 be
       -0.12905304 -0.2939026 0.2295845 -0.22379641
0000a0 b2 0f 9e be ab f6 ae bb ee 59 2a 3e 76 96 e9 bd
       -0.3087135 -0.0053394637 0.16635868 -0.11405651
0000b0 16 b6 62 3d 0a d2 8e 3e 8b 95 ce bd 16 df b6 be
       0.055349432 0.27894622 -0.10087117 -0.35717076
0000c0 1f 0f 6d 3e dd 32 51 be 21 41 b1 3d fa 19 b0 3e
       0.231503 -0.20429559 0.086550005 0.3439482
0000d0 17 fd 27 bd 3f 0b 9d 3e 40 2c 54 bf 4e 01 36 bf
       -0.04101285 0.30672643 -0.8288002 -0.7109574
0000e0 48 39 bb bd e3 99 b7 be de b9 b9 be ec 03 0a bd
       -0.09141785 -0.35859594 -0.36274618 -0.033695146
0000f0 bd ab 36 3d 3a ae c7 bc 88 32 d4 3e 39 15 a4 be
       0.044597376 -0.02437507 0.41444802 -0.32047442
000100 a6 69 ed be 30 02 67 3d 78 ab 77 3e cc d6 dd be
       -0.46369666 0.05639857 0.24186504 -0.4332794
000110 cb 3d 08 be e5 08 9a 3e 4e 87 cc bd 0d 1c 7e 3e
       -0.13304822 0.3008491 -0.09986745 0.24815388
000120 9b dc b8 be b7 41 3c 3d 90 e8 80 3e ff 1c 9a 3d
       -0.3610581 0.045961108 0.2517743 0.07525062
000130 24 ce 70 3e cc ad a0 3e 81 46 ca bd 96 30 29 3d
       0.23516136 0.31382596 -0.09876729 0.0413061
000140 a9 71 d5 be 79 a1 55 3e f0 1e c9 3e 74 c5 f3 3d
       -0.41688278 0.20862378 0.39281416 0.119028956
000150 93 60 83 bd c4 c4 d0 be 0c 27 ba be 17 d5 6e 3e
       -0.064149044 -0.4077512 -0.36357915 0.23323475
000160 df 0a 02 bf f0 14 49 bf dd 71 43 3e be 57 cc 3a
       -0.5079784 -0.78547573 0.19086404 0.0015590114
000170 de a6 1b bc 94 90 cd 3d 8e 08 b1 be 84 0a a1 be
       -0.009500233 0.10037342 -0.3457684 -0.31453335
000180 7e 4d 4e 3e b9 84 c2 3e 38 63 d0 bd ab 50 f8 3d
       0.20146748 0.37991884 -0.101751745 0.12124761
000190 a5 c1 b9 3e d4 64 5c be e0 68 17 be 07 bd a6 3e
       0.36280552 -0.21522838 -0.147861 0.3256609
0001a0 e0 1b 8c 3e dc 44 da be 91 37 86 be 2e 81 29 3e
       0.27365017 -0.4263066 -0.2621427 0.16553184
0001b0 7c 84 5f be 96 5e aa be fb 92 9e bd 17 43 cf 3d
       -0.21827883 -0.33275288 -0.07742878 0.10120218
0001c0 bf de 32 be d9 d4 ab 3e e1 74 2f 3e 6f ea c6 bd
       -0.17467783 0.33560827 0.1713443 -0.097126834
0001d0 b2 87 b1 bd 36 78 c8 be 8c 12 9d 3e 74 71 ab 3a
       -0.0866846 -0.39154214 0.30678213 0.0013080076
0001e0 08 97 78 be d7 d5 da 3c 72 74 12 3e 1a c8 10 bd
       -0.24276364 0.026713295 0.14302233 -0.03534708
0001f0 e9 31 44 be d0 47 74 3d c3 ea 64 be b3 56 77 3d
       -0.19159664 0.0596388 -0.2235518 0.060385417
000200 ca e1 08 3e e7 1b eb 3d 3a 63 88 3e 72 64 0c 3e
       0.13367382 0.11479931 0.26638204 0.13710192
000210 2c 7c 2d bd e3 bc 3a be cf ed be be 07 03 b2 3e
       -0.042354748 -0.18236117 -0.3729081 0.34767935
000220 51 76 4a 3d e1 cb 0b be 1b e4 74 be 1c 5f 8f bd
       0.04942924 -0.13651992 -0.2391514 -0.070005625
000230 2e 2e f7 be a9 15 c8 3e 27 82 cf bd 16 00 ef be
       -0.4827742 0.39079025 -0.101322465 -0.46679753
000240 d3 78 96 be e8 5c f2 be 3f 4b 89 3e 76 01 76 3e
       -0.29389057 -0.47336507 0.2681522 0.24023995
000250 1a 0e cc bc f9 b0 0c be f3 cd d3 3e 30 81 07 3c
       -0.024909068 -0.13739385 0.41368064 0.008270547
000260 f0 77 f0 3d 36 f6 a9 3d 22 27 d2 3c 29 7c f6 bd
       0.11741626 0.08298914 0.025653426 -0.120354004
000270 8a 76 db 3e fa 51 e1 3e 84 89 af bd a0 1c 92 bd
       0.42863876 0.44007856 -0.08571151 -0.07134366
000280 2b 1a 2d bd 44 32 8a be 80 1b 57 3e 1a 16 4f 3e
       -0.042261284 -0.26991475 0.21006584 0.20223275
000290 cc 75 cb 3d 77 57 a5 be d9 f7 b3 be f0 88 05 3e
       0.09934577 -0.32293293 -0.3515003 0.13040519
0002a0 f8 45 23 be 9a 43 45 3e 5b af df bd 8e 67 27 3e
       -0.1594466 0.19264069 -0.10922118 0.16348097
0002b0 95 f2 d0 be 69 e9 c5 be 7a ac 6d 3e 37 1d f6 3d
       -0.40810075 -0.3865464 0.23210326 0.12017291
0002c0 5f 4b 92 3e f0 d9 a8 3e 17 d8 a0 3c c7 9a 1b be
       0.2857313 0.32978773 0.01963429 -0.15195762
0002d0 cb bb f4 bd 9b cf c4 bd fa 64 07 3b 38 de a8 3d
       -0.11949881 -0.0960991 0.0020659552 0.0824551
0002e0 8f 43 27 3e af 49 3f 3e d8 06 44 be 86 e9 78 be
       0.16334365 0.18680452 -0.19143236 -0.24307832
0002f0 45 cd c7 3e f2 d2 06 be 6d a8 ae 3e 4a 11 3e be
       0.39023796 -0.13166407 0.34112874 -0.18561283
000300 1a e0 98 3e 47 6d 1e 3e a0 1e 83 bd b9 e4 ba ba
       0.29858476 0.15471373 -0.06402326 -0.0014258838
000310 1d ef 26 3e b5 17 c2 be ec d3 ad bc 52 8a 53 be
       0.16302152 -0.37908712 -0.021219216 -0.20658234
000320 ff 8c 3f 3e c3 4d 47 be 43 56 48 3d 2f ea a4 be
       0.1870613 -0.19463257 0.04891039 -0.32209918
000330 59 75 ce 3e 1b 6f cc 3e 07 4e 3d bd e4 99 9a be
       0.40323904 0.39928517 -0.04621699 -0.30195534
000340 91 5f 79 be 05 35 f8 bd c6 9a fb bd 46 36 32 3e
       -0.24352862 -0.12119488 -0.1228538 0.17403516
000350 bc 68 fb bd e1 2c bb bd 58 86 8c 3e bf b3 8b 3e
       -0.12275836 -0.09139419 0.27446246 0.27285573
000360 28 0c 92 3e 52 1b 10 3d 17 7d a1 3e 6a 4e 75 3d
       0.285249 0.035182305 0.31540748 0.059889235
000370 ce ec d5 bd 45 75 b3 3d a3 f7 6b 3e 97 b5 60 be
       -0.104455575 0.08762602 0.23043685 -0.21944271
000380 c7 38 06 3e 31 08 f0 bd 1b 86 7b 3e db 68 f1 be
       0.13107596 -0.117203124 0.24562876 -0.4715031
000390 76 84 d5 bd b8 90 52 3e b8 07 6d be 06 0b 92 be
       -0.104256555 0.20563018 -0.23147476 -0.28524035
0003a0 b6 84 ae 3e 6e 93 8f 3e ef 31 b9 be 18 42 de bc
       0.34085625 0.28042167 -0.3617091 -0.027131125
0003b0 37 5a 64 3e 23 c5 aa be 4c 30 5d 3b 0a 9a 89 3e
       0.22300039 -0.33353528 0.003375071 0.26875335
0003c0 3e 74 7f bd 1e 8c 9c 3e 9d 57 5b 3d f9 9d be be
       -0.062366717 0.3057565 0.05355035 -0.372299
0003d0 44 f9 35 be c7 b6 08 3e 32 d6 1f be e4 80 ce 3e
       -0.17770869 0.13350974 -0.15609053 0.4033271
0003e0 b5 de 1e bd a5 6a 0c 3e b5 3f c6 3e 23 59 4c be
       -0.03878661 0.13712557 0.3872048 -0.19955878
0003f0 f3 87 ab be 77 bc 7f 3e 95 3e c6 3e e6 82 96 be
       -0.3350216 0.24974237 0.3871962 -0.29396743

bias f4 [32]
000000 22 f0 a6 be b1 34 86 bd d5 40 fa 3d 38 c9 67 3c
       -0.32605082 -0.06553019 0.12219397 0.014147095
000010 a4 eb a1 be dc 3d 0d be d9 3a 99 3e 59 83 6c 3e
       -0.31625092 -0.13793129 0.2992771 0.2309698
000020 6b dc ea 3b 4d f0 1f 3e 3e b3 f1 3a 83 54 9b bd
       0.007167389 0.15619011 0.0018440259 -0.07584479
000030 f2 9b 74 3e a6 c3 f4 3d 11 27 8b 3d 3f ef 62 3e
       0.23887613 0.119513795 0.06794561 0.22161578
000040 f8 a7 e9 bc 31 30 6d be aa 70 2c 3e e2 e5 e0 3c
       -0.028522477 -0.23162915 0.16839853 0.027453367
000050 fd ef 13 bc 47 ec 76 bd 26 d5 ab bb 7f 19 f1 3d
       -0.009029386 -0.060283925 -0.005243915 0.11772441
000060 7b e6 72 be f2 95 c2 3d 4f 0b bd 3d 23 4c 2d 3c
       -0.23720734 0.09501256 0.092306726 0.010577234
000070 d7 f7 75 bd 51 82 2f bb 28 31 cb 3c 44 c6 96 be
       -0.06005081 -0.0026780555 0.024803713 -0.2944814

weight f4 [64, 32, 3, 3]
000000 79 1b 12 bb 4c 6b 46 3d df 41 80 bc 71 7f 66 3d
       -0.0022294207 0.04844217 -0.01565641 0.05627388
000010 6c 1b bf bb c6 d8 a8 3c f8 0b 0e bc b1 fd ed bc
       -0.0058321264 0.020611178 -0.008669846 -0.029051634
000020 83 b6 bd bb 2e 02 94 bd 14 7c a4 3d 50 40 72 be
       -0.0057895794 -0.07226978 0.080314785 -0.23657346
000030 8e 03 5d 3d fb 61 02 bd ff 16 3a be c6 f9 77 bc
       0.05395847 -0.031831723 -0.18172835 -0.015135234
000040 bd 89 0f be ca ab b4 bc d0 a1 c9 bc 2d e0 26 bd
       -0.14017387 -0.022054572 -0.024613291 -0.040741134
000050 38 f1 eb 3c 7e cd d6 bc b0 d7 3e bd b4 8f 8d bd
       0.028801546 -0.026221033 -0.046592414 -0.06912175
000060 cf 04 82 bc 00 b7 ee bd 3e af 38 bd 17 b0 6b bd
       -0.015871434 -0.11655998 -0.045089 -0.05754098
000070 80 75 09 3e 6a 6a c6 3c 50 39 97 3d 27 78 f5 bc
       0.13423729 0.024220664 0.07383978 -0.02996452
000080 83 a8 8e bd 10 3c f3 3d 6b 27 15 3c da af 21 bd
       -0.06965735 0.118766904 0.009103636 -0.039474346
000090 6c b9 c2 3c 62 bb c2 bb 63 f4 19 3d 82 61 63 bd
       0.023770057 -0.005942748 0.03758658 -0.055512913
0000a0 db 20 b7 bc 37 c9 c9 3a c4 b7 c6 bc 6e ae 56 3d
       -0.022354534 0.001539505 -0.024257548 0.052412443
0000b0 3f 19 52 3d 3c ce 30 bc 44 24 e0 3b 14 3c 27 3c
       0.051293608 -0.010791358 0.0068402607 0.010207195
0000c0 e5 08 a6 3c c8 f5 0f be ac 1c d4 bd 23 1e 18 3d
       0.020267913 -0.14058602 -0.10357031 0.037138116
0000d0 a4 6f ca 3b 08 96 b6 3d ab 63 18 be b4 84 25 3c
       0.0061778594 0.08915335 -0.1488177 0.01010244
0000e0 9e 8f b9 3d e9 e2 86 3e 17 c6 88 3d b1 bd 88 be
       0.09060596 0.26344994 0.06678408 -0.26707223
0000f0 55 28 22 bc 4d d8 44 be 25 bb 8c 3d 16 28 10 3e
       -0.009897311 -0.19223137 0.068716325 0.14077792
000100 90 67 bc 3d ce 34 82 bc be 05 d0 3d 5f 84 c5 3d
       0.091994405 -0.01589432 0.10157345 0.096443884
000110 15 f7 48 be 62 02 bf bd 9f c2 ea bd 25 41 07 3b
       -0.19625504 -0.09326626 -0.11462902 0.0020638194
000120 c1 ea 4b 3d 3b 6a 22 3d c1 a2 7c bd 82 ee c6 bd
       0.049784426 0.03965209 -0.06167865 -0.097134605
000130 33 1b 3d 3e c7 a8 82 bc e0 7c d4 3d e1 94 40 bb
       0.18467407 -0.01594962 0.103753805 -0.0029385614
000140 86 40 cc bd cc d2 3a bf d7 7e 32 bd 2b a0 6f 3d
       -0.09973244 -0.729779 -0.043577995 0.058502357
000150 62 4a 94 bd f1 f7 fa 3c 34 13 55 ba de f3 a0 bd
       -0.0724075 0.030635806 -0.00081281667 -0.07859014
000160 b0 ae c1 3d 99 15 81 3d ed f5 be bc 9b b1 6b bc
       0.09457147 0.063029476 -0.023310626 -0.014385606
000170 3e 56 a1 3e 08 5a ad be 11 0c 8c be 01 c7 07 3d
       0.3151111 -0.3385775 -0.27352956 0.03314877
000180 95 1b 5f 3e 30 10 9e bc c4 9e 1b 3e 26 7e 63 3d
       0.21787865 -0.019294828 0.15197283 0.055540226
000190 d7 13 97 3d 66 3d db bc 64 0f f1 3d 64 96 97 3c
       0.07376831 -0.026762675 0.11770514 0.018504329
0001a0 c4 21 34 3e f9 0a 02 3e c1 52 5e 3e d2 3c 48 3e
       0.17591006 0.12699498 0.21711256 0.19554451
0001b0 28 63 aa bc a5 06 93 3d f3 4e eb bc 49 78 8d 3c
       -0.020799235 0.07179002 -0.02872417 0.01726927
0001c0 7f c2 ae 3d c2 3f d8 bd 57 d7 59 3d 80 78 ab 3d
       0.08533191 -0.10559036 0.05318388 0.08372593
0001d0 c7 a2 08 be d3 d4 27 3e be 1f 00 3d ea 48 e4 3d
       -0.13343345 0.1638978 0.03128027 0.1114672
0001e0 55 8d 94 3c 9d 20 bf bd fd 8e 23 be ba 94 1c 3e
       0.018133799 -0.09332392 -0.15972514 0.1529111
0001f0 ce a9 3b 3d cc 39 64 3e ef 3a c4 3c 18 25 98 bd
       0.045816235 0.22287673 0.023953883 -0.0742895
000200 46 9f db bb 37 86 95 bb 5e a0 0e 3e 05 63 4c 3d
       -0.0067023365 -0.004563119 0.13928363 0.04989912
000210 b3 72 af 3d 6d 7b ab 3c 12 ce 8d bd 3e af 46 bd
       0.08566799 0.020932877 -0.069240704 -0.048506968
000220 87 66 d4 bd 01 c3 20 3e a4 25 01 be ca a0 dd bc
       -0.10371118 0.15699388 -0.12612015 -0.02705421
000230 df 02 4b 3e d5 88 55 bd dd 35 e5 3d 75 7e 91 3d
       0.19825314 -0.052132446 0.11191914 0.07104198
000240 d1 b7 35 3f 2e ba d3 3e 8d 55 2d 3e 74 fc 27 3e
       0.70983607 0.4135298 0.16927166 0.16404897
000250 9b dc 18 3f a4 d4 68 bd 19 fa 6d be 42 19 cb 3d
       0.5971162 -0.056843415 -0.23239936 0.09916927
000260 f1 db 67 be 01 1b 52 3e e4 72 71 be 5c 87 f8 3d
       -0.22642495 0.20518114 -0.23578984 0.12135193
000270 d9 60 1e 3e 3e 34 86 bd 03 2a 9e 3d e2 c3 aa 3e
       0.15466632 -0.06552933 0.07722857 0.33352572
000280 23 08 40 3e cd e9 bf 3b 81 15 81 bd a7 9f ae 3c
       0.18753104 0.0058567286 -0.0630293 0.021316363
000290 1e 27 c8 bd 78 4e 49 3c fd db a8 bd 21 32 90 bd
       -0.09773086 0.012286775 -0.082450844 -0.07040811
0002a0 58 11 43 bd be a6 33 bd 0e 55 bc bd 61 10 48 bc
       -0.047623962 -0.04386019 -0.091959104 -0.012210936
0002b0 35 45 4c 3d 98 7a 82 3d 8c 15 cf bd 29 fb ea bc
       0.04987069 0.06371039 -0.101115316 -0.028684216
0002c0 0f f3 1d 3d 15 be e4 bd ab 4f cc bd e2 c1 62 bd
       0.038561877 -0.11169068 -0.09976133 -0.055360682
0002d0 a2 f5 70 3d 45 cc 13 3e 5c 8f f1 bc 5d 25 a4 3d
       0.058828004 0.14433391 -0.029487304 0.08014939
0002e0 c3 b0 08 bd f9 38 6f bd f4 30 78 bd 66 a4 0b be
       -0.033371698 -0.058403943 -0.06059356 -0.13636932
0002f0 04 a8 1c bd 78 36 05 be 38 65 c3 bd d9 8c 54 3e
       -0.03824617 -0.1300906 -0.0954079 0.20756854
000300 e2 0e 32 bc 87 33 4c 3c 61 f2 9b 3e ce dc 8b bd
       -0.010867806 0.012463457 0.30458358 -0.068292245
000310 69 0f 20 3c 8d 2b 47 3d 4d 59 cc bd b0 51 83 3b
       0.009769299 0.048625518 -0.0997797 0.0040075406
000320 74 39 9e 3d 76 65 58 be e5 91 b2 bd eb 6e 54 be
       0.07725802 -0.21132454 -0.087192334 -0.20745437
000330 95 10 fa bc 7d c1 96 bd f8 59 5b bd 03 af 9e 3d
       -0.030525485 -0.07361124 -0.053552598 0.077482246
000340 b5 5f 38 bd c8 e7 96 3d fd 02 42 3d cb 8e 9a bd
       -0.04501315 0.073684275 0.04736613 -0.07546767
000350 ca b9 75 bd 7e 4d d6 3d 9b 06 10 3e eb 81 fd bd
       -0.059991635 0.10463999 0.1406502 -0.123782955
000360 01 32 8a 3d 32 65 c4 3c 7f f7 e3 3b 96 91 c4 bd
       0.06747819 0.023974035 0.006956994 -0.09598081
000370 d8 bc 8b bd d0 41 3f 3d f4 dc d8 bd 5a 88 f8 bd
       -0.068231285 0.046693623 -0.105890185 -0.12135382
000380 8a 7e c6 bc 9d 18 25 3d ca f1 4d 3c 4b 22 5f 3e
       -0.02423026 0.040306676 0.012569854 0.21790425
000390 08 04 dd 3d 8c ac e1 bd f9 2b b1 bc 9f 30 b1 3b
       0.107917845 -0.11019239 -0.021627413 0.0054074074
0003a0 e4 5d 40 3d 00 5e 0a 3e 22 bb 7a bc 82 64 a0 3d
       0.04696454 0.1351242 -0.015303405 0.0783167
0003b0 6e e8 64 bd 6f 41 7c 3d a4 15 1f 3d 26 ca 52 be
       -0.055885725 0.06158584 0.038838997 -0.20584926
0003c0 f8 47 f2 3c d1 ae 1e be 29 b8 9c be f7 8c 39 bd
       0.029575333 -0.15496375 -0.30609253 -0.04530045
0003d0 bc 81 a1 bc 09 a5 87 3d 6d 0e 85 3d ca 14 43 3e
       -0.019715182 0.06623275 0.06496892 0.19050899
0003e0 92 8b 0d be 28 be 27 bd b1 c8 0f be b6 b4 46 be
       -0.13822773 -0.04095283 -0.14041401 -0.19404873
0003f0 5c 90 0a 3e 31 a4 92 3d f8 29 c2 bd 4a bb ce bc
       0.13531631 0.07160223 -0.09480661 -0.02523579

bias f4 [64]
000000 50 24 ed 3c 81 05 53 bc 60 97 9b 3c 4d a1 a8 3d
       0.02894798 -0.01287973 0.01899308 0.08233891
000010 ab 59 0a bd ed 06 db bc cd b9 00 3d b0 80 61 bd
       -0.03377692 -0.0267367 0.031427193 -0.055054367
000020 c9 0e b3 3d 73 52 45 bd ce ec 4c 3c 8b c9 4f 3c
       0.087430544 -0.048174333 0.0125076305 0.012682329
000030 e3 f4 80 bd d7 dc e0 bc a1 af 0e 3e e4 4e 44 3d
       -0.062967084 -0.027449055 0.13934185 0.0479268
000040 db 0e 7e 3d 49 2e 0b 3d e1 bb b4 3c a3 fe c4 bc
       0.062025886 0.033979688 0.022062244 -0.024047201
000050 0a 50 27 bd 33 24 3c 3c d7 0a cd bc ab c0 33 bd
       -0.040847816 0.01148324 -0.025029583 -0.043884914
000060 cc d9 a1 3d 65 16 82 bb 61 44 e3 bc 96 54 29 3d
       0.079028696 -0.003969955 -0.027742567 0.041340433
000070 d0 75 dd bc cd d6 b9 3c a3 d6 ae 3d e5 fa d9 bd
       -0.027033716 0.022685433 0.085370325 -0.106435575
000080 47 d8 74 bd 5c 60 97 3d 2a ec 38 3d 8d 77 79 bd
       -0.05977657 0.07391426 0.0451471 -0.060905028
000090 86 dd 52 3d 92 2a 1b 3a d5 1b d6 3d 6b a8 35 3d
       0.051480792 0.0005919124 0.10454527 0.04435007
0000a0 10 6f 57 3d 59 6a 21 ba 6f af d1 bb e6 ee f5 3c
       0.05259615 -0.00061575096 -0.006399087 0.030021142
0000b0 6c d7 20 3d 92 22 2f 3d e9 71 41 3c b9 8c 9f bc
       0.039267942 0.04275758 0.011806943 -0.019476281
0000c0 f5 39 ac 3d 85 0e 7e 38 fe 80 a4 bc b0 f7 f0 bd
       0.08409492 6.057184e-05 -0.02008104 -0.11765993
0000d0 3d c0 88 bc 67 2d 50 3d 63 30 80 be b5 c3 10 3d
       -0.016693229 0.05082455 -0.25036916 0.03534289
0000e0 d6 9c 65 3d 8b f5 3b 3d b0 8d 17 bd a5 4b 7f bc
       0.056057774 0.045888465 -0.037000358 -0.015582
0000f0 99 a2 c6 3c 81 ac 96 3d e9 25 10 3d a9 1f 69 3c
       0.024247454 0.07357121 0.035192404 0.01422874

weight f4 [32, 64, 3, 3]
000000 a7 59 cd bd f5 06 33 be 3b cc 28 bd 9a 73 d9 3d
       -0.100268655 -0.17483123 -0.041210394 0.106177524
000010 fd 60 60 3e 0e 0b 63 bd 70 c0 e1 3b e3 c6 90 3d
       0.21911998 -0.055430464 0.0068893954 0.07069185
000020 e2 25 83 bd 46 0a 3a 3e 80 db 21 3c 29 4f b4 bd
       -0.0640371 0.18167982 0.009878993 -0.08804161
000030 2c ac b9 bc 93 96 8c be 95 f9 3f be 6e 83 78 3d
       -0.022665106 -0.2745863 -0.18747552 0.060672216
000040 58 28 0f 3d a5 2d 16 3d 72 0f c1 3c 43 32 c3 bd
       0.034950584 0.036664624 0.023566935 -0.09531071
000050 28 08 d2 bb e7 2a a0 3d c3 36 aa bb 49 06 1d 3d
       -0.0064096637 0.07820683 -0.0051945164 0.038336072
000060 75 ac a8 3d 8f d5 bb 3c 23 80 6e bc 86 69 a7 bd
       0.082360186 0.022928981 -0.014556917 -0.08174424
000070 29 82 e0 bc d6 e9 15 bd 3f aa df 3c e8 c6 59 3e
       -0.027405815 -0.036599956 0.02730286 0.21267283
000080 d1 3b f0 bc 2f 16 ef bd 85 1f 56 3d fb a6 f1 bb
       -0.029325398 -0.11674153 0.052276153 -0.007374642
000090 fd dc 05 be 4e 51 1e 3c 55 28 e5 bc f2 9e 90 be
       -0.13072582 0.009662939 -0.027973333 -0.28246266
0000a0 09 25 56 be d7 3c 4e bd 2b 1c 0b be 21 ba 7c bd
       -0.20912565 -0.05035099 -0.13584964 -0.061700944
0000b0 72 95 9c bd a6 65 06 3c 81 92 ea bc f4 09 33 bd
       -0.07645692 0.008202946 -0.028634312 -0.043710664
0000c0 bc 20 d9 3b 94 d4 fe bc 65 04 dd ba 10 e2 2c bd
       0.0066262167 -0.031107225 -0.0016862272 -0.042207778
0000d0 b4 9c 85 3c 01 ed 59 bc 26 86 31 3d d6 db 1c 3e
       0.016310073 -0.013301135 0.043340825 0.15318236
0000e0 93 f2 86 bc 22 d7 ca 3d 2e 6d d0 bd b2 d0 22 3d
       -0.01647309 0.099043146 -0.101770744 0.03974981
0000f0 a4 53 68 bd b2 ad 39 be b2 89 96 bd 0a c5 00 bd
       -0.05672039 -0.18132666 -0.07350482 -0.03143791
000100 09 b8 c4 3b c3 3c fa 3a 31 f8 01 bd 8e dc a8 bc
       0.006003384 0.0019091595 -0.031730834 -0.020612981
000110 80 c5 df bc 3a cb 11 3d c2 b3 25 3d 2e 4b d9 3c
       -0.027315855 0.035594203 0.040454634 0.026525106
000120 a6 65 a9 bc 9f 96 fd 3c 6d 42 35 3d 01 e2 0a 3c
       -0.020678353 0.03095561 0.0442528 0.008476735
000130 81 f4 ec 3d 6e 8d 69 bc 16 23 7a bb d0 f7 03 bd
       0.11570073 -0.014254911 -0.0038167886 -0.032218754
000140 56 35 15 3d 21 85 94 3e ac c3 f6 be 25 de dd bc
       0.03642782 0.2900782 -0.4819616 -0.027083466
000150 2e 7f 6c bd 8f 44 10 3d 8f 6a 06 3c 26 b3 b9 3b
       -0.057738476 0.035221633 0.0082041165 0.005667108
000160 67 bc eb 3b df 29 f6 bc 0f 16 31 3d bf 40 2b 3e
       0.00719409 -0.030049263 0.043233927 0.16723917
000170 9e b8 bf bd 86 03 e3 3d b5 00 31 3e aa fb 8d bd
       -0.09361385 0.110846564 0.17285426 -0.06932767
000180 18 5b a2 3d 6d 39 b9 3d 20 a4 95 bd 4f b1 71 bf
       0.07927531 0.09044156 -0.07306695 -0.94411176
000190 a1 78 8e be 2d 95 f1 3d f5 8b 56 3e 09 ff b3 3c
       -0.27826408 0.11796031 0.20951827 0.021972196
0001a0 49 96 03 3e 68 1e 0c 3e c8 f5 38 3d 72 da 86 3d
       0.12850298 0.13683474 0.04515627 0.06584634
0001b0 85 b8 f9 3c c9 c7 9b 3c 9f 67 0e bc 68 bd 0d 3d
       0.030483494 0.019016163 -0.008691697 0.03460446
0001c0 1a 87 d7 3b f9 c2 74 bc 52 b9 c8 3c 40 84 02 3d
       0.0065773847 -0.014939063 0.02450243 0.031864405
0001d0 86 72 94 3c 20 eb 57 3e ea 44 2c bf 41 a2 14 bf
       0.018121015 0.21085787 -0.67292655 -0.5806008
0001e0 23 be a8 bd fb 51 87 bd 40 4d e2 bd 28 1d 6a bd
       -0.08239391 -0.066074334 -0.110498905 -0.05715671
0001f0 57 66 cd bd 42 f6 3f bc 22 00 67 bc bd 25 83 be
       -0.100292854 -0.011716427 -0.014099153 -0.2561473
000200 7f 78 3e 3e 9e 45 8e bc d6 a0 40 bd 1e c3 05 3e
       0.18600653 -0.01736718 -0.047028385 0.13062713
000210 0b b6 c3 bd 90 b9 63 3d 57 32 32 3e d7 64 06 3e
       -0.09556206 0.055596888 0.17402016 0.13124405
000220 42 c0 3c bc 6f 66 08 3d af 41 23 bd d5 e0 c6 bd
       -0.011520447 0.033300813 -0.039857563 -0.09710852
000230 18 ac 4b 3d a5 90 9e be a8 e3 0c be b7 c9 b1 3d
       0.04972467 -0.3096973 -0.13758719 0.08681052
000240 93 e6 a7 3d f2 5a 85 bd 58 8c 23 bd c4 d2 30 3e
       0.081982754 -0.06511487 -0.039928764 0.172679
000250 7b 08 ce 3d ba 1e 16 bd fc a4 de 3d 06 e9 3d bd
       0.10060211 -0.036650397 0.10871312 -0.046364807
000260 f7 42 35 bd 11 de 3a bc 33 86 9d bc 8b ed b3 bd
       -0.044253316 -0.011405484 -0.01922903 -0.08785542
000270 29 1e 72 3d 3a cd 90 3e e8 90 ef bd d1 aa 82 bd
       0.059110794 0.28281575 -0.116975605 -0.06380237
000280 be 35 ce 3d 97 7c 3d bd 7c ef 87 3e f7 9b 35 3e
       0.10068844 -0.046261396 0.265499 0.17735277
000290 ae 4c f6 3d 91 c5 a7 3e bd 93 b5 3d 5c 80 81 3c
       0.12026344 0.3276792 0.088660695 0.015808277
0002a0 fd 27 f2 bc 16 3a e9 bd c6 9e 50 be 7e b7 bf 3d
       -0.029560084 -0.11388032 -0.20373067 0.0936117
0002b0 67 73 4f be 95 c1 71 bc 9f 16 d4 be e7 a5 b7 be
       -0.20258866 -0.014755626 -0.4142351 -0.3586876
0002c0 47 4c 07 bc 2f 62 0e be 25 cc d9 3d cc cb 07 be
       -0.008257932 -0.13904642 0.106346406 -0.13261336
0002d0 fb 52 b8 3c 3b 0e 05 bd e1 c3 c7 bc 4d a0 f1 bc
       0.022500506 -0.032484274 -0.024385395 -0.029495383
0002e0 e2 e6 20 bd 9e 9f ef 3c 60 17 83 bb 1b 48 35 bc
       -0.039282687 0.029250916 -0.0040005893 -0.011064555
0002f0 63 4b 89 3c e5 fb a6 3d 3c ba 5f 3c 6a e5 96 3c
       0.01675958 0.08153514 0.013655242 0.01841994
000300 16 31 ff bc f3 db 07 be ac 76 0a bd 03 9b b9 3a
       -0.031151336 -0.13267498 -0.03380458 0.0014160577
000310 76 32 cc bd c5 84 08 bd 29 b4 37 be ef d2 b5 bd
       -0.09970562 -0.033329744 -0.1793982 -0.08878123
000320 cd c4 07 3e 69 10 6d 3c 0f 0b 98 be ff d7 fb bd
       0.13258667 0.0144692445 -0.29695937 -0.12297057
000330 de a0 cb 3d 58 ff 8d 3d 8f b9 ac bd 87 63 f3 3b
       0.09942792 0.069334686 -0.0843383 0.007427636
000340 df b2 d3 3c 8f 49 9c 3b fb ec 30 bb 8f 4d e3 3c
       0.025842128 0.004769511 -0.002699672 0.027746944
000350 69 8a 5b 3b df b1 33 bd ab 66 04 bd 76 5a 6c bc
       0.0033499247 -0.043870803 -0.032324474 -0.014425864
000360 38 38 1d 3e e5 73 06 be ec 8d 29 3f 53 11 74 3e
       0.15353477 -0.13130148 0.6623218 0.23834734
000370 de 8a 1c bd 8b 57 e1 3e 14 79 8c 3d e3 3e 64 bd
       -0.03821837 0.44012102 0.06859031 -0.055724036
000380 af b9 33 bc 45 d3 e0 bc c9 dc af be da 12 fb bc
       -0.010969563 -0.027444491 -0.34348133 -0.030648638
000390 18 92 7d be 62 83 d3 3b c3 a6 35 be 93 00 7c 3d
       -0.24762762 0.006454871 -0.17739396 0.061523985
0003a0 5a 5b c4 3d c9 ea 96 bd 43 82 c2 bc 06 7b d8 3d
       0.095877364 -0.073690005 -0.023743754 0.1057034
0003b0 2a 52 40 3d e3 5e b8 bd 47 30 0b be 7b 70 15 3d
       0.046953358 -0.09002473 -0.13592635 0.036484223
0003c0 24 4e 23 be 15 01 7e be 4b d0 f0 bc d2 f3 a2 3d
       -0.15947777 -0.248051 -0.029396197 0.07956661
0003d0 c1 3d 7e 3d 10 af 16 be 27 78 39 3c 08 44 8a 3d
       0.062070612 -0.14715219 0.01132015 0.06751257
0003e0 a6 3f 05 3d c8 fb 73 bd 81 ab 61 ba 2e e4 f1 bb
       0.032531403 -0.05956629 -0.0008608625 -0.0073819375
0003f0 08 e5 cb 3c c5 9b f1 bc 03 18 dd bc 24 f3 db 3c
       0.024889484 -0.029493222 -0.026988989 0.026849337

bias f4 [32]
000000 41 d5 ee 3c 9b ad af 3d 92 35 8f 3d 27 53 86 bd
       0.029154422 0.085780345 0.069926396 -0.06558829
000010 41 c6 ee 3c 7c 88 46 3d 5c 32 1b bd d8 72 9e bc
       0.02914727 0.048470005 -0.037889823 -0.019341871
000020 f1 58 d7 3d 47 4e 78 3d e3 a2 c0 3c e1 ff bf bb
       0.10515011 0.060621526 0.02351517 -0.0058593606
000030 fe 45 0c 3c 01 0a 70 3d 17 10 fa 3d 25 31 89 3d
       0.008561609 0.05860329 0.122101 0.06698827
000040 66 93 04 bc 5f 5b 52 3d 66 84 d1 3b 23 09 8d 3d
       -0.008091783 0.05135667 0.006393957 0.06886508
000050 f5 81 25 3c 3b 83 b1 3d 0a 7f 06 3e b5 ac bc 3d
       0.010101785 0.08667608 0.13134399 0.09212629
000060 32 01 ab 3d 09 09 c4 3c 73 47 80 3d 04 35 6e 3d
       0.08349837 0.02393009 0.06263628 0.05815603
000070 25 bb 54 bd fc 7e de 3d 3b 13 b0 3d 57 20 20 3d
       -0.051936287 0.10864064 0.08597418 0.03909334

weight f4 [1, 32, 3, 3]
000000 ca ec c9 bb 85 e5 28 bd 27 37 c9 bc 27 f0 72 bd
       -0.0061622607 -0.041234512 -0.024562431 -0.05931106
000010 31 0c 23 3e c3 80 ac 3d f6 6e 94 3c 9f c2 6e bd
       0.1592262 0.08422997 0.018119317 -0.058291074
000020 b2 ad 3c bd b6 b4 62 3e b2 01 d2 bd 93 d3 99 ba
       -0.046064086 0.22139248 -0.102542296 -0.0011736028
000030 bb 07 b4 3b b9 18 19 bd 2c 64 85 3b b2 6c 42 39
       0.0054940856 -0.037377093 0.0040707793 0.00018541774
000040 1d be 85 3a e6 83 a5 3b 79 60 9a be 07 fe 31 3d
       0.0010203753 0.005051124 -0.30151728 0.04345515
000050 f4 eb 8f 3d 02 6b 48 be 92 01 f3 3d 4a 88 99 3d
       0.07027426 -0.1957207 0.11865534 0.07496698
000060 cb 3a e2 bc e3 be 43 3d ed df 98 3d 05 1a b8 3c
       -0.027615925 0.047789466 0.074645855 0.022473345
000070 12 e9 89 3c 85 8e d8 3b 84 c9 45 be 73 9b 71 bc
       0.01683477 0.0066087865 -0.19315153 -0.014746535
000080 e1 33 04 bc 63 86 09 3e 9c 12 8f 3c e4 9f 12 ba
       -0.0080690095 0.1343017 0.017464928 -0.00055932836
000090 fc 3d 3c bc 47 15 53 bd c4 ae 44 3c 61 35 75 bd
       -0.011489388 -0.051533964 0.012004558 -0.05986536
0000a0 d7 af e5 bc 41 5d 65 3e 66 ee 82 bc 79 12 57 3e
       -0.028037949 0.22398855 -0.015982818 0.2100314
0000b0 ca ab 50 3e 29 fd c9 bb 7d ea f0 bb c2 59 75 bb
       0.20378032 -0.0061642122 -0.007352172 -0.0037437533
0000c0 f3 4b 86 bc 7b 06 73 3c 1c 64 21 3d 4c 31 92 bc
       -0.016393637 0.014833088 0.039402112 -0.017845772
0000d0 0d 4f e2 bc 7b 70 15 3e e4 51 99 3c 54 b7 1e bd
       -0.027625585 0.14593689 0.018715806 -0.038749054
0000e0 e1 dc 99 bc ee 18 18 3d e6 99 27 bd 86 fc c8 3c
       -0.018782081 0.03713315 -0.040918253 0.024534475
0000f0 e7 e3 5f bd 8d 34 7f bc 8e e7 03 3d 1b 02 fc bc
       -0.054660704 -0.015576494 0.03220325 -0.030762723
000100 db 84 8f 3d 91 27 ea 3c 14 1c 12 be eb fe 00 3e
       0.07007762 0.02858332 -0.14268523 0.12597243
000110 98 50 8a bd b7 e5 e6 3b 93 da 7d bb f6 66 18 3b
       -0.06753653 0.007046427 -0.0038735017 0.002325473
000120 52 f9 34 3d f3 b3 10 3d 34 60 5c 3c 58 21 60 be
       0.044183083 0.035327863 0.013450671 -0.2188772
000130 62 0f 4c bd ed 9b 65 3c be b0 b7 bb be ba 4e 3d
       -0.049819358 0.014014226 -0.005605786 0.05047106
000140 64 8d 4b 3c 8a b1 8f bc bf 9d eb bc 21 5c 91 3c
       0.012423847 -0.017540712 -0.028761743 0.017744126
000150 29 04 87 3d f7 cb f1 bd 32 a5 89 bc a8 e5 89 3d
       0.0659259 -0.11806481 -0.016802404 0.067332566
000160 09 ad 1a 3d 15 42 a0 3a d6 85 e2 3c cd f7 9d bd
       0.037762675 0.0012226725 0.027651709 -0.0771328
000170 14 02 84 bd ce c6 a6 3d 5c d6 a7 be 24 0f 84 bd
       -0.06445709 0.08143388 -0.3278073 -0.064482
000180 4d 82 51 3d bf da 14 3d ee 22 be 3c ee 93 4d bc
       0.051149655 0.036341425 0.023210015 -0.012547476
000190 ce 1b 45 3c 5a 11 5a bd 40 56 c4 3b cb 4b 1b bd
       0.012030555 -0.053239204 0.005991727 -0.03791408
0001a0 7b c9 8a 3b 4d 84 f9 bc 19 c4 09 bd 39 6f b4 3c
       0.004235444 -0.030458594 -0.03363428 0.022025691
0001b0 95 25 53 bd 62 84 45 bd 4b 68 3a 3d 13 5e 37 bc
       -0.051549513 -0.048221953 0.045509618 -0.011191863
0001c0 6a 19 46 bc 3e 79 00 bd 3a 08 41 3d ab 9e c6 bc
       -0.01209102 -0.031365626 0.047126986 -0.02424558
0001d0 9b b1 1e bd 90 76 4a bd ed 28 51 3d 9e 71 cc 3c
       -0.038743597 -0.049429476 0.05106442 0.02495652
0001e0 a7 b0 6a 3d 4c 1c 49 3d 7e 73 a8 bd 4f 73 9e 3c
       0.057297375 0.04909925 -0.082251534 0.019342093
0001f0 6b c5 00 bd 25 df b7 bb 6b af 5b 3e 4c 35 33 3e
       -0.031438272 -0.0056113177 0.21453635 0.175008
000200 ad 89 b4 3c 9d 99 84 bd 6a ae 1b bd 4e 46 20 3d
       0.022038305 -0.06474612 -0.03800813 0.039129548
000210 21 2a e1 bd 7e e6 97 bc 8f ed ed 3c 75 b7 08 bd
       -0.109943636 -0.018542524 0.02904394 -0.033378083
000220 ee 6d 39 bd 0f 0c 9c bc a9 02 c2 3d 90 41 d8 bc
       -0.045270853 -0.019048719 0.09473164 -0.02639845
000230 46 80 81 3d c2 32 be bc ab e2 6c bb 21 3d 9a 3c
       0.06323294 -0.023217563 -0.0036145847 0.018827977
000240 32 62 9a bd 06 5c b6 bc de 57 38 be 69 73 0e 3d
       -0.075382605 -0.022260677 -0.18002269 0.034778032
000250 43 a9 dc 3e d6 02 47 3d 71 be a4 3c 5c 62 1a 3d
       0.43097886 0.04858669 0.02011034 0.03769146
000260 2a ea 6c 3c 0c 0e 26 3e b2 22 19 3e 6b 2a d1 bc
       0.014460126 0.16216296 0.14954641 -0.025532922
000270 26 c6 4e 3e 74 13 a9 bd cb 19 b6 bd 10 1d e8 3c
       0.20192775 -0.082556635 -0.08891638 0.02833417
000280 65 9f b2 bd 66 6d a8 bc 28 2e 56 bd 39 11 84 be
       -0.08721808 -0.020559978 -0.05229011 -0.2579439
000290 98 89 39 be 67 81 e9 3b b0 83 70 be 95 90 8f 3e
       -0.18118894 0.0071260217 -0.23487735 0.28039995
0002a0 a4 40 14 3c 98 9f da bc bd d9 00 3e a9 13 5a 3e
       0.009048615 -0.026687428 0.1258306 0.21296562
0002b0 89 3a c1 bd 7e c4 c9 bd 00 d9 bb 3d ce d0 73 bd
       -0.09434993 -0.09851931 0.09172249 -0.059525304
0002c0 ad bf 08 be 6f e1 10 3e b9 5e 1a 3d 85 0c 0c bb
       -0.13354369 0.14148496 0.03768799 -0.0021369767
0002d0 5b ea 5d 3d 8c 1a 1e 3d ef 72 28 3d 5e 47 1f bd
       0.054178577 0.038599536 0.041125234 -0.03888642
0002e0 14 ae 32 bd b1 67 5e bc 93 f3 08 bd cb be 24 bd
       -0.043623045 -0.013574527 -0.033435415 -0.040221017
0002f0 e7 a5 aa 3c 9b 65 86 3d 5b 6a 03 3e dc f1 8a 3d
       0.020831062 0.065623485 0.1283354 0.06784412
000300 28 c8 5b 3d 57 d0 ad 3d 22 33 39 3c f9 29 6b 3c
       0.05365768 0.08487003 0.011303695 0.014353269
000310 d1 f2 bd bb 0f fe 31 ba eb 04 f5 3c da 5a 46 3e
       -0.0057967682 -0.0006789872 0.029909572 0.19370595
000320 25 e2 0d 3e 82 c9 41 bd ad d8 b9 be d8 60 64 3e
       0.13855799 -0.047311313 -0.36298123 0.22302568
000330 1c 37 36 3c 9d 61 6c be 85 3d 88 3d 28 a6 5d bd
       0.011121538 -0.23084112 0.06652359 -0.054113537
000340 94 e6 a3 bb be a1 1e bd e9 aa e0 bc a7 a0 82 3e
       -0.0050018523 -0.038728468 -0.027425246 0.25513193
000350 15 0b 47 bd 40 79 ce bc dd c3 85 bd d9 19 1c bd
       -0.048594553 -0.0252043 -0.065314986 -0.038110588
000360 5f 4e 24 3e f2 53 fe 3d 68 13 43 3d 98 9e ad 3d
       0.16045521 0.12418355 0.04762593 0.08477515
000370 25 88 00 3e a0 a8 9d bd fe 0e 8d bd 1c 46 09 be
       0.12551935 -0.07698178 -0.06887625 -0.13405651
000380 f7 78 3f be 6e 98 25 bc 15 1d 13 bf c2 ea 45 be
       -0.18698488 -0.010107143 -0.5746625 -0.19327834
000390 8b 51 b1 bd d4 96 ad bc 4e ca 3f 3d 2b 5a 3a 3d
       -0.08658131 -0.021190085 0.046823792 0.045496147
0003a0 e5 0c d9 3d 3c 12 06 3e cc bc 06 3e 1b 08 b2 be
       0.105981626 0.13092893 0.13157958 -0.3477181
0003b0 21 1a 93 be b7 f3 b5 3d b2 7a 3f bd 9d 51 a2 bc
       -0.28730872 0.088843755 -0.04674787 -0.019814307
0003c0 ab 79 90 3d 49 c1 4d 3d 68 f7 9e 3d 8d 79 01 be
       0.07054456 0.05023316 0.07762033 -0.12644024
0003d0 b2 dd 29 bd 15 d2 c1 3a ae 57 38 3d d7 7b a7 bc
       -0.04147119 0.0014787341 0.045005493 -0.020444794
0003e0 4b 1a 85 bb ec 5a 03 3f a3 eb b2 3d 63 db 80 bd
       -0.0040619723 0.5131061 0.087363504 -0.06291845
0003f0 05 4e 01 3d f1 15 0d 3d 8a 7b 74 3c 9d 18 a6 be
       0.031568546 0.034444753 0.014922032 -0.32440653
