s03/python_scripts/python_scripts/deblurring.pt (torch, 162928 bytes, 7 tensors)

weight f4 [32, 1, 3, 3]
00000000: 50d2 833e 01c3 4dbe b193 753c 99ec c83d
00000010: d648 bc3e 7396 813e f97f 2b3d c301 a5be
00000020: 2edf 16be 4a9e f33c ec55 e13d ba34 c43d
00000030: 5499 04be e068 c33c 8030 ffba bbe2 2cbe
00000040: cf51 723e 8d91 cd3e 35ce 3fbe 02ab 833e
00000050: 839d 72be 93de 513e db73 1d3e 0bfd af3d
00000060: a7de c73e 50fb 753e 92b9 a7be 90c3 c4be
00000070: 7182 fc3d 9234 2f3d 8c9f 07bf 5645 d4bc
00000080: 75e3 633d 17db c5be 5b50 65be 76d3 c63e
00000090: 798d fcbe 5569 ddbe 474f ba3d 4991 00bc
000000a0: b9b4 583e d89c 133e 12cf 533e e24d 763e
000000b0: e2d6 86be 721b a83e 5c11 c1be 5d7a cabe
000000c0: 765a d93d ccc2 30be 75a9 96bb a578 3c3e
000000d0: 5f7b 0cbe 82dc a83e 8866 5abe 583b 683e
000000e0: 7b64 ccbd 00c3 0f3e ab2d 833e 2278 96be
000000f0: 5a8e b23e 954e 5abd 539b 88be 6c61 bbbe
00000100: 3e2b af3e 6983 c23e 8049 c43d ccd6 e03d
00000110: 3eb0 423e 2813 12bd ce4a 1fbe 87d4 6ebe
00000120: 0395 22bf f803 82be b076 9f3e 9794 a9be
00000130: 6b59 96bd 17aa 4ebd ae45 933e 68d9 a93d
00000140: 5d14 973d a0b4 1dbf f148 bf3c f254 e5be
00000150: c2f3 953e 8d97 75bd 3945 5cbe eac8 09be
00000160: d0f7 703e adcc cfbd f623 773e 6b9f e9bd
00000170: 3650 b9bd b7d0 a1be c29b 9bbe 28f8 a93e
00000180: 6057 583d 0016 1c3d 0aef 84be ba5b fc3d
00000190: e2da 6c3e 4e04 8b3e e085 a7bc 6709 80be
000001a0: 3051 1ebe d7bd 973e 8230 523e 3d4b d9be
000001b0: 18c5 d03b af6c 20be 24f1 333e 0591 c33e
000001c0: f66f 3bbe abde 29be 45bb 483c b4e6 8bbd
000001d0: 3486 a43d 7756 acbe 0f9e 273c c2e3 23bc
000001e0: c875 b63d 4718 863e 65ed 44be 5f5b f53e
000001f0: 0edc 1a3e 3008 b3bd ba2e 0b3e 180a 9abe
00000200: c397 803d 7960 80be f97d 3d3e 37e7 e63d
00000210: 8cd1 6e3d ea1a e9bd bd19 243e 28d4 513c
00000220: fc33 fabc 7fcc 9a3c f273 8cbe 6b55 cfbd
00000230: d1d1 c13d ea2d d23d 2893 993e 914b 80bd
00000240: d895 963e 4631 37bd e7bc e43d 53fc 6d3e
00000250: 727f 96be 6a3d 21be d8a4 b3be 2c1e 8f3e
00000260: a7f5 2b3e b0e9 d73d c062 0dbe 6b83 c5bd
00000270: 603c 85be 9b9a 09be 40b5 0abd d6b4 7f3d
00000280: 0b19 093e 56b5 813c d3a0 17be 2c45 953e
00000290: f84d bcbd 2c8f f3bd 98a4 d53e 92a7 16be
000002a0: 1590 59be 39e2 963e da18 a0be e9f6 febd
000002b0: 01a9 f23d 4587 9abd 76ab bdbd 0a5f d23d
000002c0: fead 543e a275 8cbd 194d b53d 9089 f1bd
000002d0: 6107 ccbe 71ec e8be f576 ca3b 3873 24bf
000002e0: ec5c b0be ae8c dcbe 3782 95bd 5f7f 92be
000002f0: 0cf2 723e 006e 60bd 5837 2abe 862f 44be
00000300: 467b 1c3e bb68 973d 9b18 72be 5e9e 31be
00000310: 56c3 38bb ab80 42be 5e4d 3e3e f6d3 debd
00000320: 9626 af3c 28d3 55be f8a4 3d3e 641d 8d3e
00000330: 08bb 2f3e 5ec2 9ebe deae 1bbe 80c4 4ebd
00000340: 8d85 333d 8528 d6bd 0b88 cebc 0e62 74bf
00000350: b8f8 1abe cd20 ccbe ec43 4abf 9898 593e
00000360: c441 7f3e af2b f93d a44f 1fbf 3948 10bd
00000370: a63f 03bf c431 44bf 9ca3 a53e 5692 243c
00000380: c7cd 513e b3da 98be e9f6 8fbe 42d8 963d
00000390: 37b6 a1bd d5fc 9a3e f9e8 8f3e d412 c83c
000003a0: dda7 523e f247 073e 2cb1 b6be 092d 5c3e
000003b0: 568f 87be ee36 423e 8ea0 963e 2a10 853e
000003c0: 114c 903e 1414 173e ab72 67be 682f 143e
000003d0: e3f6 1d3e 60a9 fdbd b6c9 c9bd 16bb 6e3e
000003e0: d240 91be 962c 10be 7088 cb3d ab56 6f3d
000003f0: 6b38 68bd ab8e 30be 489b 393e d662 c9bc
0.25746393 -0.2009392 0.014988826 0.098107524 0.3677432 0.25310096 0.04187009 -0.32227907
-0.14733574 0.029738564 0.110027164 0.09580369 -0.12949115 0.02385372 -0.001946941 -0.16883366
0.2366402 0.4015011 -0.18731005 0.25716406 -0.23692898 0.20495062 0.15376227 0.08593186
0.39037058 0.2402165 -0.32758766 -0.38430452 0.12329567 0.042774744 -0.52977824 -0.025911968
0.05563684 -0.38643715 -0.22393934 0.38833207 -0.49326685 -0.43244424 0.09097152 -0.007847139
0.2116269 0.144153 0.2068446 0.24053147 -0.26335818 0.3283344 -0.37708557 -0.3954648
0.10612957 -0.17261809 -0.0045978376 0.18405397 -0.13718937 0.32980734 -0.21328175 0.22678888
-0.09980103 0.1403923 0.2562078 -0.2938853 0.3487423 -0.053297598 -0.26681003 -0.36597764
0.3421268 0.37990883 0.095843315 0.10978469 0.19012544 -0.0356628 -0.1555588 -0.2332326
-0.63508624 -0.25393653 0.3114524 -0.33121178 -0.07341274 -0.05045518 0.287641 0.0829342
0.07376931 -0.61603737 0.02335021 -0.4479137 0.29287535 -0.059958983 -0.21510781 -0.13455549
0.23532033 -0.10146461 0.24134812 -0.1140736 -0.09048502 -0.3160455 -0.3039227 0.3319714
0.052817702 0.03810692 -0.25963622 0.12322183 0.23130372 0.27151722 -0.020449579 -0.25007173
-0.15460658 0.29637024 0.20526317 -0.42440215 0.0063711517 -0.1566646 0.17572457 0.3819658
-0.18304428 -0.16588847 0.01225168 -0.068311125 0.0803341 -0.33659717 0.010230555 -0.010003032
0.08909184 0.26190397 -0.19231184 0.47921273 0.15123007 -0.08741796 0.13592044 -0.30085826
0.06278946 -0.25073603 0.18505086 0.112745695 0.05830531 -0.113820866 0.16025443 0.01280693
-0.030542366 0.01889634 -0.2743221 -0.10123714 0.094638474 0.10262664 0.29995084 -0.06264413
0.29411197 -0.044724725 0.11168843 0.23240785 -0.29394108 -0.15746084 -0.35086703 0.27952707
0.16792928 0.10542619 -0.13807201 -0.096442066 -0.26022625 -0.13437884 -0.03386426 0.062428318
0.1338846 0.015833538 -0.14807443 0.29154336 -0.09194559 -0.11892542 0.41727138 -0.1471236
-0.21246369 0.2946947 -0.3126896 -0.12449438 0.11848641 -0.07545332 -0.09261219 0.102720335
0.20769498 -0.06858374 0.08852596 -0.11793816 -0.3984938 -0.4549289 0.0061787316 -0.6423831
-0.34445894 -0.4307608 -0.07300227 -0.286128 0.23725146 -0.054792404 -0.16622674 -0.19158754
0.152814 0.073930226 -0.23642199 -0.17345569 -0.0028192601 -0.18994395 0.185842 -0.10880272
0.021380704 -0.20881331 0.18519962 0.27561486 0.1716119 -0.31007665 -0.15203425 -0.050480366
0.043828536 -0.10456947 -0.025211355 -0.9546212 -0.15133941 -0.39868775 -0.7900989 0.21249616
0.24927431 0.12166535 -0.62230897 -0.035225127 -0.51268995 -0.76638436 0.32351387 0.010044655
0.20488654 -0.29854354 -0.28118065 0.07365467 -0.07896083 0.3027102 0.28107432 0.02442304
0.20571847 0.13211039 -0.35682046 0.21501555 -0.26476544 0.18966267 0.29419369 0.25988895
0.28183034 0.14753753 -0.22602336 0.14471209 0.15426211 -0.12385821 -0.098529264 0.23313555
-0.28369766 -0.14079508 0.09938133 0.058432262 -0.05669443 -0.17241924 0.18125641 -0.024583261

bias f4 [32]
00000000: c675 4bbd 401a 39be 14ba a0be 56a5 683e
00000010: 56f0 363e 4271 a53d fc2c 5f3d 9906 943b
00000020: d9ad 8e3d 2433 943e c2e9 9cbe d2eb 36be
00000030: f24f b43c 18ac ac3b 751a 933d c859 8e3d
00000040: 804d 91be 265c 4ebe 4123 903d f4be 803d
00000050: 6f07 ac3e 2b31 00bd fe1d 52be ebdf f93d
00000060: 010c a93d f027 f43c 41ad ebbb 2356 48be
00000070: ab93 1fbe bea6 3abe 8509 793d f9eb 823e
-0.049672864 -0.1807642 -0.31391966 0.2271932 0.17865118 0.08078243 0.05448626 0.004517388
0.069667526 0.28945267 -0.30647093 -0.17863396 0.022010777 0.0052695386 0.07182781 0.06950718
-0.2837944 -0.2015234 0.07037974 0.062864214 0.3359942 -0.03129689 -0.20519254 0.12200912
0.08254243 0.0298042 -0.0071922843 -0.19564109 -0.15583675 -0.1822767 0.060800094 0.25570658

weight f4 [64, 32, 3, 3]
00000000: 7f51 b7bc e829 13bb b27d 15bd e281 ddbc
00000010: f83b 2ebd 80d5 983b 02c0 e63c ea03 923d
00000020: f0f5 613d 58f0 58bb 9578 c03d 738f e53d
00000030: e6e7 99bc 460c 5e3d 68fa 9bbd b4af 3fbd
00000040: e893 a339 12b9 11bd 9f6f 93bd ef82 01be
00000050: 3eed 02be a1a2 2c3d 958e 31be b75e 23be
00000060: b2d8 a9bd 0cb5 abbd dd8b f43a 0b2c 7bbd
00000070: 06a8 2dbd 7ef1 c13d 946d 36bd c431 ba3d
00000080: 6676 023e 94a8 0cbe 971c aa3d 0c80 17bd
00000090: 638b 2abd 629c 04bd b9bc c33b 8f40 dabc
000000a0: 995a 3a3d e0b2 093b 7647 1abc 375c 823d
000000b0: 0d8f 2e3d 71f6 b2bd d6e8 42bc 0e5f db3c
000000c0: c948 333e aaf2 553d 64a5 cb3d 531b 123e
000000d0: f714 e63d 4e75 02bc afd9 293e c3db b5bd
000000e0: a983 63bd 5db4 c13d 8fd1 52bd e144 a2bb
000000f0: dc5e a13d 0fc9 9f3c 0754 383e 24da eabc
00000100: e8ff 503d 2d0b c3bd c663 29bd 0e5f ae3c
00000110: c63a 81bc f924 b8bc 097a 103e 7a27 52bc
00000120: 47fc bbbd ddc9 b0bd 98c3 ddbd f9bb 40bc
00000130: 6740 95bd 08e1 473d fd05 253d 2b2f 41be
00000140: afd7 ea3d ed56 48bd 144a 39bd d742 a03d
00000150: 852d e3bc 2cef 463d 5b6f 583c fc73 72bc
00000160: 6244 a3bd 5c42 1f3d 083d c93c 3386 9e3c
00000170: 8b68 62bc 8a29 13bd dba4 9e3b d068 373d
00000180: 34ba 22bd d130 643d 33a9 33bc cf2b 16bd
00000190: 501b 593d 7ee4 8c3d 5c84 8f3d a371 b5bc
000001a0: d025 f63c cb7a c4ba 8ced 303d 4c07 81bd
000001b0: bfdd 223d 09f3 f0bc 2c7c cabd 0ce9 b73d
000001c0: c24a 4b3c be25 40be e6fb 7c3d fc7d ae3b
000001d0: b990 6bbd 7802 4d3b 3f27 58bd 8aec d63d
000001e0: 42ed eeb9 40ed 1bbd 37eb c83d 2a25 983c
000001f0: 2772 b3bd b4dd 4f3d 1d52 f8bc 30c2 673d
00000200: 85b5 1e3d 5bc3 3f3d d629 413c d582 21bd
00000210: 8df6 7c3d 30f8 813d cb6d b6bd e33e 393d
00000220: ed88 6239 7b66 26bc 150c 163d 7b92 963d
00000230: 6ed4 d63d dda2 85bd 70fc fdbc 6eaa 19bd
00000240: b691 413b 94d9 2dbd 1618 8cbd e4d5 febc
00000250: 7077 1ebd d541 b9bc aaef da3c fe5b 10bc
00000260: 010c d73b d1dc 323c 1361 4bbd d00b 34bd
00000270: 800a 67bd 105a 6a3c 60cd 033d 8adc 9d3c
00000280: c9d8 7abc 083d 98bc ab88 06bd acdd dbbc
00000290: ae83 c73d c1b2 86bd c319 1abc 3f5f 3e3e
000002a0: b48c d2bd 9651 9e3d 9414 e93d 0f7d 7a3d
000002b0: ee2a a63d d1b8 cb3d cb38 573b 49aa b83d
000002c0: 754e eb3d f663 803c 0925 ce3c 6ad1 0fbc
000002d0: 8c7c 423d 6536 a1bb 8c4d 9e3d 30ca d33c
000002e0: a117 33bc 6c12 1fbe 46aa fc3b f6f8 d63c
000002f0: ea95 cfbd 3de8 1cbd 0508 b7bc bcd9 8e3b
00000300: 42fd 553d 0b7c 8e3c 701f 363b b841 6ebd
00000310: a78a 403d 1328 453d c411 503d e148 0c3d
00000320: 5e9d 70bd 099a 283c 39b9 3bbd 92ab 01bd
00000330: fc2a de3c b20b ec3a fe35 f5bb aa05 83be
00000340: baa7 28be a835 403c 862e 2ebe c4a7 a3bd
00000350: 1a9c 89be eba7 09bd bdc0 a23d 7ab6 87be
00000360: 39b4 79be 2dd8 0fbe 8926 acbd 400c 9fbe
00000370: 7f1a 63be bed3 71be 5b86 073c 9444 bebe
00000380: 2c5d 4cbe b170 303d e542 1c3d da33 88bd
00000390: d002 bcbc 7d93 fa3c 3121 62bd 7dba c8bd
000003a0: 1065 7bbd 3acb 30bd 04d4 94bc 2cbe 54bd
000003b0: ecab 343d bb35 983c 8c51 94ba 49d9 d93d
000003c0: dfcb 10bd c00f 0fbd 11cb e7ba 154a 3abd
000003d0: da9e 13bc 5b03 11bd 4f82 6abc 3ead 4d3d
000003e0: ce35 e2bb 581c 9a3c 14c5 21bd 46df 6fbc
000003f0: 01b3 943c 7401 82bc 0462 5cbd 3e76 473d
-0.022377728 -0.0022455398 -0.036496826 -0.027039472 -0.04253766 0.004664123 0.028167728 0.07129653
0.055166185 -0.003310224 0.09397999 0.112090014 -0.018787336 0.054210924 -0.076161206 -0.046798423
0.00031199981 -0.035576887 -0.071990244 -0.12647603 -0.12785813 0.042147283 -0.17339547 -0.159541
-0.082932845 -0.08384141 0.0018657405 -0.0613213 -0.042396568 0.09469889 -0.044538096 0.09091523
0.12740478 -0.13736182 0.08306234 -0.03698735 -0.041636836 -0.0323757 0.005973425 -0.026642112
0.045496557 0.0021011159 -0.009416452 0.06365245 0.042616893 -0.08738411 -0.011896333 0.026778724
0.17508234 0.052233376 0.09943655 0.14268236 0.112344675 -0.007962538 0.16586946 -0.08879807
-0.055545483 0.0945823 -0.051469382 -0.0049520587 0.07879421 0.019505052 0.18000804 -0.02866847
0.0510253 -0.09523616 -0.041354917 0.02128556 -0.015775096 -0.022478567 0.14109053 -0.012826795
-0.091789775 -0.08632252 -0.10828322 -0.011763566 -0.072876744 0.04879859 0.040288914 -0.1886565
0.1146692 -0.048911024 -0.045236662 0.07825249 -0.027731666 0.048567936 0.013210143 -0.014798161
-0.07972027 0.038881645 0.024565235 0.0193511 -0.01381887 -0.035928287 0.0048414296 0.04477769
-0.03972836 0.055710617 -0.010965633 -0.036662873 0.053004563 0.06879519 0.070076674 -0.022148913
0.030047327 -0.0014990208 0.043195292 -0.0630022 0.039762255 -0.029412763 -0.09886965 0.08979997
0.01240796 -0.18764398 0.061763667 0.005325077 -0.057511065 0.003128199 -0.052771803 0.10494335
-0.00045571668 -0.038068056 0.09810489 0.018572409 -0.08762007 0.050748542 -0.030312592 0.056581676
0.03874733 0.046817165 0.01178976 -0.03943141 0.061758567 0.06346166 -0.0890766 0.04522599
0.00021604048 -0.010156269 0.036632616 0.07352158 0.104897365 -0.06525204 -0.03100416 -0.03751605
0.0029536313 -0.042443827 -0.068405315 -0.03110785 -0.038688123 -0.022614399 0.026725609 -0.008810995
0.0065627103 0.010916905 -0.049653124 -0.043956578 -0.056406498 0.014303699 0.032178283 0.0192702
-0.015310475 -0.01858379 -0.03284518 -0.0268391 0.09741913 -0.06577063 -0.009405556 0.18591021
-0.10280743 0.07730405 0.11380878 0.06115442 0.08113657 0.0994736 0.0032840248 0.09016854
0.11489574 0.015672665 0.025164144 -0.008777956 0.04748206 -0.0049198144 0.07729635 0.025853246
-0.010930927 -0.15534371 0.007710728 0.02624176 -0.10136016 -0.038307417 -0.022342691 0.004359452
0.05224348 0.017393133 0.0027789734 -0.058168143 0.04700723 0.04813392 0.050798193 0.03424919
-0.058743827 0.010290631 -0.04583094 -0.031657763 0.027120106 0.0018008857 -0.007483243 -0.2559026
-0.16470233 0.011731543 -0.17009935 -0.07990983 -0.2687691 -0.033607405 0.07946918 -0.26506406
-0.24385156 -0.14047308 -0.084057875 -0.31064034 -0.22178076 -0.2361593 0.008271779 -0.37161696
-0.19957417 0.04307622 0.038149733 -0.06650515 -0.02295056 0.030587906 -0.055207435 -0.09801195
-0.061375678 -0.043162562 -0.018167503 -0.051939175 0.04410927 0.018580308 -0.0011315807 0.10637147
-0.035350677 -0.03492713 -0.001768442 -0.045480806 -0.009010041 -0.03540359 -0.014313295 0.050214045
-0.0069033867 0.018812343 -0.03949459 -0.014640635 0.018151762 -0.015869834 -0.053804412 0.04869675

bias f4 [64]
00000000: 0496 a33d 4aec 38bd b15b 00bd 70a4 b43d
00000010: a760 9d3d 1256 2bbd 210d 76bd e701 86bd
00000020: c990 953d 9996 62bb 5703 6e3b 7848 973c
00000030: c256 8f3d f09c 81bb 19ec 693b 645a 713d
00000040: b177 ae3c 224c 003d b835 b9bc fdd8 b33d
00000050: b687 89bd 438c 87bd b110 fa3c b202 403c
00000060: daba 013d 0361 993c 5cef c43b 2ade 563c
00000070: 06e5 f1bc 3c7c 1ebd d3be a73c 8876 1b3d
00000080: 615e 853c 37d6 32bd b0b0 013e 7d95 c2bc
00000090: ccca 433d 1ac3 44bd 2e3c 89bd ea11 50bd
000000a0: b603 2f3d 56fd 46bd d04d b23d c5cd 74bd
000000b0: 3163 c0bc 5804 ab3c cbae 2abd bd58 c2bc
000000c0: 6276 0c3d 53b6 0b3e 1c01 58bd dd9c 573c
000000d0: 3a7f 103d 74e8 bd3d 3a12 8a3d c518 9d3c
000000e0: ed11 033d c808 f33c fbce c73d d2ef 26bc
000000f0: 9c23 03bd b8e3 8a3a 54ce 2038 6b50 553d
0.079875976 -0.045147218 -0.031337444 0.088204265 0.076844506 -0.04183013 -0.060071114 -0.065433316
0.07303006 -0.0034574626 0.0036317909 0.018467173 0.069989696 -0.003955476 0.0035693704 0.058924094
0.021297308 0.031322606 -0.022608623 0.087816216 -0.06715338 -0.0661855 0.030525537 0.011719393
0.031672336 0.018723017 0.006009979 0.0131144915 -0.029528152 -0.038692698 0.020476734 0.037954837
0.016280355 -0.043661322 0.12665057 -0.023752922 0.047800824 -0.048037626 -0.067009315 -0.050798334
0.04272815 -0.048581444 0.08706248 -0.05976655 -0.023484798 0.020876095 -0.0416706 -0.023723954
0.034292586 0.1364377 -0.052735433 0.013159958 0.035277583 0.092728525 0.06741758 0.01917685
0.031999517 0.029667273 0.09756275 -0.010189014 -0.03201638 0.001059643 3.833913e-05 0.052078646

weight f4 [32, 64, 3, 3]
00000000: 0fe4 a13c 102c 3d3d 7c52 a13d f3d6 3d3d
00000010: 94c2 173d 1b78 5b3d 2168 e93c 41f2 193c
00000020: 9948 da3b b409 22bd cbcd 0fbd 8000 9c3d
00000030: f5a0 73bc dff0 cc3b 91f9 b23b 22df 9bbb
00000040: 5a31 2cbd 2bb2 c73c 2d87 36bd 49e5 28bc
00000050: 6ac4 0f3d a964 f53c f9e3 f2bc ee6a 233d
00000060: 6553 b8bc 92e5 33bc 32f0 133d a6d1 1c3d
00000070: b771 8d3d 67d6 bfbc 9b3d 97bd a6f1 d3bd
00000080: bf77 9fbe c099 1ebe 83ca 60be 87ef f6bd
00000090: 5496 173d 80af 143c b316 263d ffae 5d3d
000000a0: f10a f83c 6db1 3e3d 2878 673c b0b0 03bc
000000b0: 169c 7b3b e5eb cf3c aa03 5d3c 3b5c 61bb
000000c0: 908c a53c bb46 833d 0332 233d 5f07 d0bb
000000d0: 7b9c 153d 9384 083c 60d9 1b3c b3ed 88bb
000000e0: 2a67 9dbc d6f9 d23b d68f 3b3b 5784 293d
000000f0: d668 f33c 1066 803c 2e16 11bd 96ae 743b
00000100: e355 29bd 067e 0a3d 7810 a73c 55e3 953c
00000110: b3d9 c33c cbf5 063d 5444 073b 2a83 0abd
00000120: 127d 5bbc 57f4 5cbc 7d4f 083d bbdc 003d
00000130: c3d1 233c 573f 803d ca15 ba3d 77cf 673b
00000140: f544 533a 7d37 f1bc 5cbf 7bbc 8492 60bd
00000150: 6b4a c23d 63c2 64bc c94a d23b 8d27 ac3d
00000160: eb04 32bc e2ba 4cbd 67e4 223d ca74 133d
00000170: ab25 4c3b 5e3e c53c daaa 013d 1650 253d
00000180: cbae adbc 8621 21bd a6ed 5dbc 26c8 b03d
00000190: af2d 49bb 3b22 963d eb08 553d 1c49 84bb
000001a0: 40a5 003d 8d33 8d3d 820d b5bc 50f5 033c
000001b0: 311b 0a3e a44a 67bc 1055 0abe 6d4d debd
000001c0: 4dd2 16be 4ce5 cfbd de4a 4b3b 38e3 2c3d
000001d0: 72d2 883d 4503 183d 5604 d8bc 3193 80bc
000001e0: f7a5 e8bc d28e 083d e84c 51bb 816c 813b
000001f0: 99d2 f33b 1994 5cbc d67f 563c 0282 60bc
00000200: afee 12bb b96f cfbb 402d 543c f77f 9f3c
00000210: 9e0d 0f3c e3db 693d 9e0e 99bc 92a6 333d
00000220: d863 98bc 980e a03c d26e 573d 0922 38bc
00000230: 7c2f 0e3c 66e0 5e3c 42a7 29bc c8a4 3abc
00000240: 3c09 66be 85a5 43be 2f8e 8e3c 49aa 53be
00000250: 773c 973c 1d2f c5bc f52d 483c 5a77 0d3c
00000260: bb54 3b3c fdae 673c 3f1f 59bb 4d8d f43c
00000270: 6a13 5f3d 11fd 6fbc a7fe dcbb 6757 863d
00000280: 8fb2 51bc fde9 a43c f661 613c e000 523c
00000290: 3317 f0bc b6ef 63bc fb44 013c 44cd 24bd
000002a0: ab7f 403c a6f5 1f3d 7b06 e8bc 40aa 833b
000002b0: 7f21 1d3d 6110 f53b 5017 cd3b 09c8 02bd
000002c0: 64a4 67bd 98a7 a7bc 994f a4bc 670b f6bc
000002d0: 9069 153c e42f 01bd 7166 96bc 8679 90bc
000002e0: c64d fc3b 05ad a8ba f1b1 c03b ebe0 0bbd
000002f0: 5516 6cbc ecf0 ae3c cd29 32bd bd0a 98bc
00000300: e9b7 22bd 9693 02bc 61d1 c33c 21c2 1ebd
00000310: 57a3 043c 426a 9f3c e837 a23e 75ce 753e
00000320: e885 89bd c834 343f b83f 073f 6770 803c
00000330: 00d6 1f3f 95d8 dc3e d6fe 013e f4b4 04be
00000340: 73ab 30be c36d 07be 3f7f 46be 1f22 eb3c
00000350: 1ad2 8e3d 10b7 133d 5735 df3d 7fc5 2abd
00000360: 70f3 d8bc 0e2a dfbc 8683 b1bc 5006 d1bc
00000370: db70 203c 20d9 993c 0e7a 03bd 40d7 4d3c
00000380: 109a 29bd ddef c43d 4a2a 85bd 0090 b8bc
00000390: c98e b5bd 37af f038 a595 5d3d 4875 023c
000003a0: 0994 063e 306a 643d 4881 14bd 0527 40bc
000003b0: cce9 0b3d e0c9 2c3c 8a30 2cbd b38e be3c
000003c0: f0ae cb3c a3c1 7b3c f9b3 1a3d 65af 053c
000003d0: b4dd 173c ff03 613b 76e9 b6bc 5b93 33bd
000003e0: 542e 0fbd 1f6e 7c3b 1b6b 2bbd 3c3d 6ebc
000003f0: e8c8 d23c 0bf9 72bc 0006 083a 76b9 be3b
0.019762067 0.0461846 0.07877061 0.04634757 0.0370508 0.05358134 0.028492035 0.009396137
0.0066614863 -0.039560035 -0.03510837 0.07617283 -0.014869918 0.0062543 0.0054618795 -0.004756824
-0.042039253 0.02437695 -0.044562507 -0.010308572 0.035099424 0.029955225 -0.029649721 0.039896898
-0.022500703 -0.010980027 0.03611774 0.038285874 0.06906455 -0.023417665 -0.07384797 -0.10348825
-0.31146047 -0.15488338 -0.21952252 -0.12057405 0.0370086 0.009075046 0.04054899 0.054121967
0.030278655 0.046555925 0.014127769 -0.008037731 0.0038392595 0.025381038 0.013489643 -0.003438725
0.020208627 0.06409975 0.039842617 -0.006348535 0.036526185 0.008332389 0.009512275 -0.0041787266
-0.019214232 0.006438474 0.0028619668 0.041385975 0.029713076 0.015673667 -0.035421543 0.0037335507
-0.041341674 0.03381159 0.020393595 0.018296877 0.023907518 0.03294925 0.0020640092 -0.033816494
-0.013396518 -0.0134859895 0.03327893 0.031460505 0.009998742 0.06262081 0.09086187 0.0035371461
0.00080592866 -0.029445404 -0.015365448 -0.05482723 0.0948685 -0.013962361 0.0064176065 0.08405981
-0.01086543 -0.049982913 0.039768603 0.03600005 0.0031150382 0.02407759 0.031657077 0.04035958
-0.021201512 -0.03933861 -0.013545429 0.08631925 -0.0030697396 0.07330748 0.052010458 -0.0040370356
0.031407595 0.06894598 -0.022101168 0.0080540925 0.13486935 -0.014116917 -0.13509011 -0.108546115
-0.14728661 -0.10151157 0.0031019966 0.04220888 0.06680764 0.037112493 -0.026369255 -0.015695186
-0.02839945 0.03333933 -0.003193671 0.0039497023 0.0074408767 -0.013463044 0.013092002 -0.013702871
-0.0022420099 -0.006330457 0.012950242 0.019470198 0.008731274 0.057094466 -0.018683728 0.043860026
-0.018602297 0.019538209 0.05259592 -0.011238583 0.008678313 0.013603305 -0.010354819 -0.011391826
-0.2246446 -0.1910611 0.017401783 -0.20670427 0.01846145 -0.024070317 0.012217988 0.008634413
0.011433776 0.014140842 -0.0033130196 0.029852534 0.054461874 -0.014647738 -0.006744224 0.065596394
-0.012798919 0.020131106 0.013756266 0.012817591 -0.029307937 -0.013912132 0.007889981 -0.04023482
0.011749188 0.039052628 -0.028323403 0.004018098 0.038362022 0.007478759 0.0062588826 -0.03192905
-0.05655326 -0.020465657 -0.020057486 -0.030034734 0.009119406 -0.031539813 -0.018359395 -0.017636072
0.007699701 -0.0012868947 0.0058805873 -0.034150045 -0.014409621 0.021355115 -0.043496896 -0.018559808
-0.03972617 -0.007969758 0.02390355 -0.038759355 0.008095584 0.019459847 0.31683278 0.24004538
-0.06714994 0.7039304 0.528316 0.015678598 0.62435913 0.4313399 0.12694868 -0.12959653
-0.17252903 -0.13225465 -0.19384478 0.028702794 0.069736674 0.036063254 0.10898846 -0.041692253
-0.026483268 -0.027241733 -0.02166916 -0.025515705 0.009792532 0.018780291 -0.032098822 0.012563527
-0.04140669 0.09616063 -0.065022066 -0.022529602 -0.08865125 0.00011476728 0.05409779 0.007962532
0.13142408 0.05576533 -0.036256105 -0.011728053 0.034158513 0.010546178 -0.042038478 0.023261404
0.02486369 0.015365991 0.03776929 0.008159493 0.009269167 0.0034334657 -0.02232812 -0.0438417
-0.03495629 0.0038517786 -0.04185019 -0.014540967 0.025730565 -0.014829884 0.00051888824 0.0058204485

bias f4 [32]
00000000: 7fb0 82bd 26e2 0c3d 6be4 ed3b 954a 203c
00000010: 787c 1f3c ab96 ed3c 10d4 35bd 1bb6 003e
00000020: 4963 f43d ef46 7b3d ef1a 9cbc 6136 0b3c
00000030: a2cd 6dbd 38cb cf3c 347f 6c3c 8627 d9bc
00000040: d299 0bbd 4609 2fbd 1480 483c ae08 e4bb
00000050: a9da 243d d1a9 c6bc 63c5 1b3e f4d0 0ebc
00000060: e396 b53c 7554 7b3d 04d3 57bc 2a4c 393c
00000070: 8566 5bbd 2da6 bcbc 292d fabc bed2 2cbb
-0.0638132 0.03439536 0.0072598956 0.009783407 0.0097342655 0.029002508 -0.04439169 0.12569468
0.11933 0.061346944 -0.019055812 0.008496852 -0.058057435 0.025365457 0.014434624 -0.026508104
-0.03408224 -0.042733453 0.012237567 -0.0069590425 0.040247593 -0.024250897 0.15212016 -0.0087168105
0.022166675 0.06135984 -0.013172869 0.011309663 -0.053564567 -0.023028458 -0.030539112 -0.002637073

weight f4 [1, 32, 3, 3]
00000000: 3eea 9f3d d506 79bc a233 8bbd 3f2d 98bd
00000010: 71ee 9bbd fb25 1c3d 8414 dfbc aa7d 913d
00000020: a9d1 b83c 3c69 7e3d be7e 62bd 6212 ff3b
00000030: 7a6d 4d3d 97c8 6a3c 5d2e 773d 8123 57bd
00000040: 9200 55bd 0289 54bd 5794 a3bb 85e9 3dbd
00000050: e85a 0e3d 04a8 e43a eac6 b63c 89b0 343d
00000060: 55d5 a0bc c9df 01bd ee4a bd3c 6f77 a53d
00000070: 9569 833d 7c36 063d 8254 213c fdee a03d
00000080: 538c 563d fc52 153d 1f11 31bc fce4 51bd
00000090: 2fa1 403d 2793 9c3d d1cd 0a3c 8ee7 17be
000000a0: 6fab 96bc 9d22 9e3c 4012 83bd bf40 803d
000000b0: e597 413d df88 ffbc 29d0 ae3d 9315 d8bb
000000c0: 45b5 5dbd dbba 8cbb a295 7e3c 6985 3fbd
000000d0: 7d99 c53c ee72 503d c38f a4bc 69eb 6c3c
000000e0: 6be8 783c ca41 34bc dbee 3dbd 6421 523d
000000f0: 1e73 a3ba 6ff6 5fbb 11ca 273c 5326 a2bd
00000100: ceee bd3d 61ee 993d f8f2 24be 751f 803c
00000110: 5a2c c83c 7cd3 76bd d2bb 6abd eb9f 433d
00000120: 66cd 8d3e 3b8f 1f3e 5afd 193e 151d b1bd
00000130: b6b1 42bf ed73 de3d 9217 0e3e db80 243e
00000140: 738f db3d 1f08 2abd 30b8 fe3c eb13 81bc
00000150: 0c99 973d 045e b53d b589 de3c 55be 123d
00000160: cc1b a0be 454d 88bd bb30 60be 78b9 cabd
00000170: 6fe5 70be 1402 f8bd 9898 0abe 40c7 febc
00000180: 0e8e 0fbe 0592 32bd 0539 3bbc 49e4 bfbd
00000190: 99a8 c33d ec0c 4fbd d711 413d 513f cf3d
000001a0: c952 a1b9 e78d 1e3c 7835 edbd 46b8 19bd
000001b0: 808e fe3c b94b 703d c770 093d 4079 b73c
000001c0: 1134 aebc feb0 09bd 5528 19bc 183a 413d
000001d0: 2d9d aabc 4a5f 94be e108 d5bd 8d72 193d
000001e0: 71e7 1dbe 8b51 813d cd25 343d 5cd5 a53d
000001f0: 1a5e 8c3d b44e 8bbc cb09 de3d 7005 383d
00000200: eedf d8bd e2cb 83bc 0735 c73d 1a6e b3bd
00000210: a0b1 d2bd bdf5 a83c 25a5 54bb 984a 66bb
00000220: 1eb0 1b3d 7b17 0f3d 159d 523d a40a 233d
00000230: 8be9 193d 6d84 02bd c0f1 343d 1feb a53c
00000240: eea5 983d 0373 adbd 0e04 f1bd e291 46bd
00000250: 5266 123e f4f2 873d 7725 9abd 28ea 0abd
00000260: c281 b63c 211b bd3d 601c 973e 0105 69be
00000270: 914a 95bc d49c 3fbd 87f8 ebbd 5440 37bd
00000280: 0258 c93c 797b 803d 34a4 af3d d7ca 673d
00000290: 5dc3 14bc 1758 f33c 99c2 f73c 3bb6 10bd
000002a0: e84e ffbc a705 81bd c5a0 913c b039 0c3e
000002b0: 56af d5bd 4880 b3bd 2783 9f3d 4695 bd3c
000002c0: c096 4d3c 4309 8ebd b803 44bd e65c 5f3d
000002d0: 1dea 813d 723a 813d c0ed 4d3c 6d6d 3f3d
000002e0: df84 883d 76af 583c 6f81 3d3d 4c3f aebc
000002f0: 0d22 aabc b729 07be 9691 373e 8f63 063d
00000300: 28b9 96be 17fa 903e 2b57 973b efdb 11bd
00000310: 29f6 50be d8a3 b7bd 3fa0 da3d 9589 12bf
00000320: afb5 b93d 3dd1 983d 78a8 813d c662 9c3d
00000330: 75ff 303d fbbb 443d af42 9d3c 550c fd3c
00000340: d6f7 dcbc b8cb 103d 15c0 833c 6769 43bd
00000350: 3f1f 16bc 9467 083c 5a40 0b3d 26e0 33bd
00000360: 4a18 a5bd ca64 1d3e 06ba fd3d 87f6 2dbd
00000370: f7c0 703d 8dfa 62bd 6244 753c 1a75 cbbc
00000380: dcc0 85bd 1a28 25bd 3e6f e63a b589 d83c
00000390: b184 053d 5f2f 92bd 3afa 9e3d 4e78 553d
000003a0: b098 a3b8 740d 9fbb 97e8 aabd 2edd 55bd
000003b0: 4af6 34bd 147d 5a3d d11d 05bd 06f3 13bd
000003c0: 784a 353d c918 883d 2075 8a3d 8628 0dbe
000003d0: d2ef c13d e834 ad3d ac7e 073b 47b7 87bd
000003e0: 7b7d b5bc 7fb1 b3ba 4a66 cc3d e002 52bd
000003f0: 8ad9 313d d5d4 3c3d 61ad e8bc 8ce4 813d
0.0780835 -0.015199383 -0.067969576 -0.07430505 -0.076138385 0.03812216 -0.027231462 0.07104047
0.022560911 0.062112078 -0.055296652 0.007784174 0.050153233 0.014330051 0.06034695 -0.052524094
-0.052002497 -0.051888473 -0.0049920487 -0.04636528 0.034754664 0.0017445092 0.022311646 0.04411367
-0.019632975 -0.03170756 0.023107018 0.08079421 0.064166225 0.032766804 0.009846808 0.078580834
0.052379917 0.036456093 -0.010807305 -0.051243767 0.047028717 0.076452546 0.008471922 -0.14834425
-0.018392293 0.019303614 -0.06399965 0.06262349 0.047264 -0.031193195 0.08535797 -0.0065943687
-0.05412795 -0.004294736 0.015538605 -0.04675809 0.02412104 0.050890855 -0.020088082 0.014460423
0.0151921315 -0.011002013 -0.04637037 0.051301375 -0.0012470221 -0.0034173985 0.0102410475 -0.07917466
0.09274064 0.0751617 -0.1610831 0.01564 0.024435211 -0.06026028 -0.057308026 0.04775993
0.2769577 0.15581982 0.15038052 -0.08648125 -0.76052415 0.10861955 0.13876179 0.1606478
0.1072072 -0.04151165 0.031093687 -0.015756568 0.07402238 0.08855823 0.027165273 0.035826046
-0.31271207 -0.06655363 -0.21893589 -0.098986566 -0.23525022 -0.12109771 -0.13534772 -0.03110087
-0.14019033 -0.043596286 -0.011427169 -0.09369714 0.09553642 -0.050549433 0.047136154 0.101194985
-0.00030769993 0.009677387 -0.11582464 -0.037529252 0.031073809 0.058665965 0.03355482 0.022396684
-0.021265062 -0.03361606 -0.009347995 0.047174543 -0.0208269 -0.2897895 -0.10402084 0.03746276
-0.15420319 0.06314381 0.043981362 0.08097336 0.06853886 -0.017005302 0.108417116 0.04492706
-0.10589586 -0.01608843 0.09726911 -0.087612346 -0.102877855 0.02062499 -0.0032447067 -0.0035139676
0.038009755 0.034934502 0.051419336 0.03980507 0.03757624 -0.031864572 0.044175863 0.020253716
0.074535236 -0.08469202 -0.117683515 -0.04847897 0.14296845 0.066381365 -0.07526677 -0.033914715
0.02227867 0.0923369 0.29513836 -0.22755815 -0.018224033 -0.046780422 -0.11522012 -0.044739082
0.024578098 0.062735505 0.08576241 0.056589928 -0.009079781 0.02970509 0.030244159 -0.03533004
-0.031165555 -0.06299906 0.017776856 0.13693881 -0.10433833 -0.08764702 0.07788687 0.023142468
0.012548149 -0.0693536 -0.04785511 0.054531954 0.06343482 0.06309976 0.012568891 0.046735216
0.06665968 0.013225427 0.046266016 -0.021270417 -0.02076819 -0.13199507 0.1792663 0.03280979
-0.29438138 0.28315803 0.0046185455 -0.035610136 -0.20406403 -0.089667976 0.10675096 -0.57241184
0.090678565 0.07461784 0.06330961 0.07636027 0.043212373 0.048030835 0.019196836 0.03088967
-0.026973646 0.03535053 0.016082803 -0.04770794 -0.009162723 0.008325476 0.033996917 -0.043914936
-0.080612734 0.15370479 0.12388997 -0.042471435 0.058777776 -0.055414725 0.014969917 -0.024836112
-0.06530926 -0.040321447 0.001758076 0.026432851 0.032597248 -0.071379416 0.07762571 0.052116685
-7.800886e-05 -0.0048538987 -0.08345144 -0.052212887 -0.044180192 0.05334194 -0.03249914 -0.036120437
0.044260472 0.066453524 0.06760621 -0.1378499 0.0946957 0.08457357 0.0020674868 -0.06626754
-0.02215456 -0.0013709514 0.099804476 -0.051272273 0.043420352 0.04610141 -0.028402986 0.0634242
